…
In this case, Joe's point is $(1,2)$ and Gracie's point is $(-1,1)$.
So the distance between their points is $\sqrt{((-1)-(1))^2+((1)-(2))^2}=\sqrt{(-2)^2+(-1)^2}=\sqrt{4+1}=\sqrt{5}$.
Therefore, Gracie and Joe's points are $\boxed{\sqrt{5}}$ units apart.
The answer is: \sqrt{5}
----------------------------------------------------------------------------------------------------
type:	MATH_AnsAug
++++++++++++++++++++++++++++++++++++++++++++++++++++++++++++++++++++++++++++++++++++++++++++++++++++
PeftModel(
  (base_model): LoraModel(
    (model): LlamaForCausalLM(
      (model): LlamaModel(
        (embed_tokens): Embedding(32000, 4096)
        (layers): ModuleList(
          (0-31): 32 x LlamaDecoderLayer(
            (self_attn): LlamaSdpaAttention(
              (q_proj): lora.Linear(
                (base_layer): Linear(in_features=4096, out_features=4096, bias=False)
                (lora_dropout): ModuleDict(
                  (default): Identity()
                )
                (lora_A): ModuleDict(
                  (default): Linear(in_features=4096, out_features=128, bias=False)
                )
                (lora_B): ModuleDict(
                  (default): Linear(in_features=128, out_features=4096, bias=False)
                )
                (lora_embedding_A): ParameterDict()
                (lora_embedding_B): ParameterDict()
                (lora_magnitude_vector): ModuleDict()
              )
              (k_proj): lora.Linear(
                (base_layer): Linear(in_features=4096, out_features=4096, bias=False)
                (lora_dropout): ModuleDict(
                  (default): Identity()
                )
                (lora_A): ModuleDict(
                  (default): Linear(in_features=4096, out_features=128, bias=False)
                )
                (lora_B): ModuleDict(
                  (default): Linear(in_features=128, out_features=4096, bias=False)
                )
                (lora_embedding_A): ParameterDict()
                (lora_embedding_B): ParameterDict()
                (lora_magnitude_vector): ModuleDict()
              )
              (v_proj): lora.Linear(
                (base_layer): Linear(in_features=4096, out_features=4096, bias=False)
                (lora_dropout): ModuleDict(
                  (default): Identity()
                )
                (lora_A): ModuleDict(
                  (default): Linear(in_features=4096, out_features=128, bias=False)
                )
                (lora_B): ModuleDict(
                  (default): Linear(in_features=128, out_features=4096, bias=False)
                )
                (lora_embedding_A): ParameterDict()
                (lora_embedding_B): ParameterDict()
                (lora_magnitude_vector): ModuleDict()
              )
              (o_proj): lora.Linear(
                (base_layer): Linear(in_features=4096, out_features=4096, bias=False)
                (lora_dropout): ModuleDict(
                  (default): Identity()
                )
                (lora_A): ModuleDict(
                  (default): Linear(in_features=4096, out_features=128, bias=False)
                )
                (lora_B): ModuleDict(
                  (default): Linear(in_features=128, out_features=4096, bias=False)
                )
                (lora_embedding_A): ParameterDict()
                (lora_embedding_B): ParameterDict()
                (lora_magnitude_vector): ModuleDict()
              )
              (rotary_emb): LlamaRotaryEmbedding()
            )
            (mlp): LlamaMLP(
              (gate_proj): lora.Linear(
                (base_layer): Linear(in_features=4096, out_features=11008, bias=False)
                (lora_dropout): ModuleDict(
                  (default): Identity()
                )
                (lora_A): ModuleDict(
                  (default): Linear(in_features=4096, out_features=128, bias=False)
                )
                (lora_B): ModuleDict(
                  (default): Linear(in_features=128, out_features=11008, bias=False)
                )
                (lora_embedding_A): ParameterDict()
                (lora_embedding_B): ParameterDict()
                (lora_magnitude_vector): ModuleDict()
              )
              (up_proj): lora.Linear(
                (base_layer): Linear(in_features=4096, out_features=11008, bias=False)
                (lora_dropout): ModuleDict(
                  (default): Identity()
                )
                (lora_A): ModuleDict(
                  (default): Linear(in_features=4096, out_features=128, bias=False)
                )
                (lora_B): ModuleDict(
                  (default): Linear(in_features=128, out_features=11008, bias=False)
                )
                (lora_embedding_A): ParameterDict()
                (lora_embedding_B): ParameterDict()
                (lora_magnitude_vector): ModuleDict()
              )
              (down_proj): lora.Linear(
                (base_layer): Linear(in_features=11008, out_features=4096, bias=False)
                (lora_dropout): ModuleDict(
                  (default): Identity()
                )
                (lora_A): ModuleDict(
                  (default): Linear(in_features=11008, out_features=128, bias=False)
                )
                (lora_B): ModuleDict(
                  (default): Linear(in_features=128, out_features=4096, bias=False)
                )
                (lora_embedding_A): ParameterDict()
                (lora_embedding_B): ParameterDict()
                (lora_magnitude_vector): ModuleDict()
              )
              (act_fn): SiLU()
            )
            (input_layernorm): LlamaRMSNorm((4096,), eps=1e-05)
            (post_attention_layernorm): LlamaRMSNorm((4096,), eps=1e-05)
          )
        )
        (norm): LlamaRMSNorm((4096,), eps=1e-05)
        (rotary_emb): LlamaRotaryEmbedding()
      )
      (lm_head): Linear(in_features=4096, out_features=32000, bias=False)
    )
  )
)
/home/mhlee/anaconda3/envs/pissa/lib/python3.10/site-packages/transformers/deepspeed.py:24: FutureWarning: transformers.deepspeed module is deprecated and will be removed in a future version. Please import deepspeed modules directly from transformers.integrations
  warnings.warn(
Detected kernel version 5.4.0, which is below the recommended minimum of 5.5.0; this can cause the process to hang. It is recommended to upgrade the kernel to the minimum version or higher.
…
